demo/dqn.pth (torch, 20343 bytes, 6 tensors)

net.0.weight f4 [64, 4]
00000000: 8089 8fbe 30ad ae3e 18c0 a0be 3e63 f13e
00000010: c94e 833d cc0d 0f3e 8105 6bbe e58c 20be
00000020: f92a 803d 88d2 47be 4213 6fbf c65f cdbd
00000030: 3c81 543e 52b3 d4be 719b 41bf 08b9 82be
00000040: ffbb 7ebd fa02 14be 3333 d03e 8f89 263e
00000050: c48f 8dbc d4af ae3e 32f1 923f a9aa ca3e
00000060: 3835 183d 8a35 9ebe 2b4a 81bf b809 c6be
00000070: 3572 b0bd 6180 e6bd ef20 423e 5a0d 09be
00000080: 1dfb a43e 4e08 abbc f693 23bf f442 71bd
00000090: fd51 053e 2222 ee3d be98 e83e 1437 1ebf
000000a0: 0a70 15bf b586 99bd c603 97bd 7c4f 723e
000000b0: 3e2c dabc a523 183e 180a bbbe 329c 50be
000000c0: 9a82 25be 2157 b4be f661 333f 88b6 5d3e
000000d0: 7ea6 9b3e de12 ca3d 1cdc 043f d014 e8be
000000e0: 394d 213e 9a2b fd3e a3e2 523f 6c24 b83e
000000f0: dbe3 dcbe ebf9 e43e f987 333f 9d1c 923e
00000100: c0a4 a3bc 4cc6 d9be 3ed8 2e3f a024 17bd
00000110: 9559 2d3e 31e0 47be 26c2 01bf 1484 a93e
00000120: 0fc8 80be 0432 af3d d226 3f3f 9f22 983e
00000130: 79e6 8c3d def2 193e 523a 24be 6081 44be
00000140: e53e a4bd 98d9 ccbd 524a 42bf 8a47 a5be
00000150: 9300 b83e f4ba 543e dcfa 443f 4997 36bd
00000160: 7129 be3e 34d5 873e 057e 58bd 4581 99bc
00000170: ffcf 8a3e c88b 17be 9257 22bf ebf0 f3be
00000180: 6bd6 d7bd ff9c 323e 0c99 283f c356 883e
00000190: 93e5 a73e 956a a73e 43ad 163f af53 abbe
000001a0: 871c acbe 6172 773e 6514 ccbd 6ef4 163e
000001b0: b3d2 09bf ceb9 ea3e 6f10 203d 473f 5a3e
000001c0: dcaf 96be 5b57 5d3e 8ca4 bf3b 01e9 d83e
000001d0: 7437 ba3d 17e6 403e 6842 6a3f 2f14 0a3e
000001e0: 5f94 73bd b845 c13e 798a 013f 8b8b 823e
000001f0: b992 53be 51a6 e33e 8153 1cbe 438b 2ebe
00000200: 9a41 afbd 3299 91bd dee9 47bf d83c 96be
00000210: 3d0a bfbc f5ea 113e 4b95 83bf 066d 67be
00000220: 3359 bcbe c866 cd3e 0c26 fcbe d981 a8bd
00000230: 2476 29be d86b 4b3a 9acf d33e eb1d 81bd
00000240: 1b9e e13d 0e53 6b3e dd45 dbbd deac 1f3e
00000250: 5f5b b1be b25a e13e 05e0 ba3e a501 243f
00000260: 777b 073c 6b94 bfbd 4ae1 63bf 822c c2bd
00000270: 92fc 8bbe c18a 593e dfae f73d d5f8 d83e
00000280: 97d9 5abe 3fc3 173e 4ce4 a9be 2dad 0e3d
00000290: 4fb7 3e3e 57c3 a93e 26ce 32bf de98 043e
000002a0: 64ff 2f3e 1f44 343e f900 31bf 9d35 ea3d
000002b0: 9c99 04be d03d 94bd 330f e43e 6656 e2be
000002c0: fbbc bcbe 1024 8bba e23f 54be 2c75 09bd
000002d0: 4a69 423e 83fd 1ebe 2fb1 493e 79d0 c2be
000002e0: 10f6 ed3d e3a9 963e 3429 04bf eb2e 0ebe
000002f0: d340 22be ae2b 9e3e c071 863f 1a25 6e3e
00000300: aeb8 803e 51ea d33d 1d6c 21be 1924 cdbd
00000310: 8006 2bbe b173 6c3e f01c 1dbf eb7e 10be
00000320: 499c 5f3c 4d46 0dbe 495d 853e 094c bebe
00000330: 0da0 953e 4130 95be b27a a33e e9f1 98be
00000340: 7f39 49bd f4d6 c03e 06c2 063f 86cf 133e
00000350: e390 273e e434 9b3e e6a2 733e f924 7f3e
00000360: e37e 5ebe 70f1 e43d c0c0 cf3e 7522 d7bd
00000370: 3d39 103b 371d c73e bf54 b53e 6e57 09bf
00000380: dd82 b6be 9546 78bc 81c2 5b3f 982e b43e
00000390: 9927 acbe e5dd cebe 2368 8abf 642a a9be
000003a0: de94 d6bd c29d 1b3d b7e6 91bd a5be 03bf
000003b0: 14a8 7abe 7c08 89be 1ab5 f8be 45f6 6abe
000003c0: d3c8 063d 90f2 c3bd fd3c 9ebe 0a7c a93e
000003d0: abac 2f3e 21a0 65bd 4dc8 d13e e290 debe
000003e0: e820 a3bd 028f 5c3e 1e93 293f d5f4 a1be
000003f0: f4df ed3e 0148 8e3d 1a7d 0cbe 461d 36be
-0.28034592 0.34116507 -0.31396556 0.47146028 0.064115115 0.13970107 -0.22951318 -0.15678747
0.062581964 -0.19513905 -0.9338876 -0.10028033 0.20752424 -0.4154306 -0.7562781 -0.25531793
-0.062191006 -0.1445426 0.40664062 0.16263412 -0.017280467 0.3411852 1.1479857 0.39583328
0.03716013 -0.30900222 -1.0100759 -0.3867929 -0.08615533 -0.11254955 0.18957876 -0.13384
0.32222834 -0.020877983 -0.63897645 -0.058901742 0.13019557 0.11627604 0.45429033 -0.6180279
-0.58374083 -0.074963965 -0.073737666 0.23663133 -0.026632424 0.14857347 -0.36531138 -0.20372084
-0.16163102 -0.35222724 0.7007135 0.21651661 0.3040046 0.0986688 0.5189836 -0.4532838
0.15752114 0.49447328 0.8237707 0.35965288 -0.4314259 0.44721922 0.7012935 0.28537455
-0.01997602 -0.425341 0.6829871 -0.036900163 0.16928704 -0.19519116 -0.5068687 0.3310858
-0.25152633 0.085544616 0.7466861 0.29713914 0.06879897 0.15034053 -0.16037872 -0.19189978
-0.08019809 -0.1000244 -0.75894654 -0.32281142 0.35937938 0.20774442 0.7694528 -0.04457787
0.37140992 0.2652985 -0.052854557 -0.018738398 0.27111813 -0.14799416 -0.6341487 -0.47644743
-0.10538944 0.17442702 0.6585853 0.26628694 0.3279234 0.32698503 0.58858126 -0.33462283
-0.33615515 0.24164726 -0.099648274 0.1474168 -0.53837126 0.45844883 0.039078172 0.21313201
-0.29431045 0.21615355 0.005848473 0.42365268 0.09092608 0.18837772 0.9150758 0.13484262
-0.05946767 0.37748504 0.5060192 0.25497088 -0.20661439 0.44462827 -0.15266229 -0.17045312
-0.085574344 -0.07109298 -0.7809123 -0.29343295 -0.023320312 0.14249785 -1.0279936 -0.22600183
-0.36786804 0.40117478 -0.49247777 -0.082278915 -0.16548973 0.00077599054 0.41369325 -0.063045345
0.11016484 0.22980902 -0.10706685 0.15593287 -0.34640023 0.44014508 0.36499038 0.6406501
0.008269182 -0.0935448 -0.8901564 -0.094811454 -0.27341133 0.21244337 0.12093901 0.42377344
-0.21372066 0.14820574 -0.3318199 0.034833122 0.18624614 0.33156845 -0.6984581 0.12948939
0.17187268 0.17604111 -0.6914211 0.11436007 -0.12949222 -0.07238352 0.44542846 -0.44206542
-0.3686293 -0.0010615606 -0.20727494 -0.03355901 0.18985477 -0.15526395 0.19696496 -0.38049677
0.11619198 0.29426488 -0.5162537 -0.13885085 -0.15845041 0.308927 1.0503464 0.2325634
0.251409 0.10347427 -0.15763898 -0.10016651 -0.16701698 0.23091008 -0.6137228 -0.14110915
0.013648101 -0.13796349 0.26047733 -0.37167385 0.29223672 -0.29138377 0.31929547 -0.29872063
-0.0491271 0.37663996 0.52639806 0.14434633 0.16363864 0.3031379 0.2379261 0.24916448
-0.21728091 0.11178863 0.40576744 -0.10504619 0.0022006773 0.38889477 0.3541622 -0.5364903
-0.35646716 -0.015153547 0.85843664 0.35191798 -0.3362396 -0.40403667 -1.081303 -0.33040154
-0.10477613 0.037992246 -0.071240835 -0.51462775 -0.24478179 -0.26764286 -0.4857567 -0.22945507
0.032906365 -0.095677495 -0.30905905 0.33102447 0.17155711 -0.056060914 0.4097313 -0.43469912
-0.07965261 0.21538928 0.6624011 -0.31632105 0.46459925 0.069473274 -0.13719597 -0.17784604

net.0.bias f4 [64]
00000000: 9369 3f3e 6fca fe3e 975d 023f 6e34 373e
00000010: ab7b ef3e 005f 45be c2d6 743e 8ae6 88be
00000020: ca66 f3be d141 ccbe bf91 bcbc 25fd a3be
00000030: 2524 c93e 80a1 053f ed3b ebbc a463 9e3e
00000040: d553 b4be d785 9d3e a01c b8be 8edb 0a3e
00000050: cbf4 71be 9d24 ce3d df11 c1be 190b b8be
00000060: 13c3 c43e fb96 b53e 2ecf af3e 4ae5 8bbe
00000070: b61a aebe 8fe7 a13e 164f 7bbe 9dff 093e
00000080: de9f fa3e 8621 aa3e 8e31 163f 04b2 94be
00000090: a3dd 153f f9e2 e5be 39e2 9b3e e29f 713e
000000a0: 400c 62be 8786 06bf 33fb 833e 6217 3bbe
000000b0: 4bc2 513e d8f8 c13e c2e7 b8be 9d22 b13e
000000c0: 9228 60be e531 163f 2bee a23e c5d5 e0be
000000d0: 67f4 a6bd 7d72 adbe 0b6b 8bbe d117 9ebe
000000e0: e795 2ebe 0423 903e 972d 103e 2649 6bbd
000000f0: 7d95 e7bd f4e7 28be ebf1 ad3d 327c 09bf
0.18692617 0.4976382 0.50924057 0.17891094 0.4677404 -0.19274521 0.23910049 -0.26738387
-0.4753936 -0.39893964 -0.023018716 -0.3202907 0.3928539 0.52199554 -0.028715098 0.30935395
-0.3522021 0.30766174 -0.3595934 0.13560316 -0.23628537 0.10065577 -0.37708947 -0.35945967
0.3843008 0.3546675 0.34337753 -0.2732337 -0.34004754 0.31621978 -0.24541888 0.13476415
0.48950094 0.332287 0.58669364 -0.29042065 0.58541316 -0.4489973 0.30446032 0.23596147
-0.22074986 -0.5254902 0.25777587 -0.18270639 0.20484273 0.37885165 -0.36114317 0.3459672
-0.21890476 0.58669883 0.31822333 -0.43913093 -0.08152085 -0.3387641 -0.27230105 -0.30877545
-0.1704937 0.28151715 0.14079891 -0.057442807 -0.113078095 -0.16494733 0.08493408 -0.5370513

net.2.weight f4 [64, 64]
00000000: 45a0 5dbe a87c a6bc 4ad6 293d f860 9bbd
00000010: 4f4c 023d 6cf1 8dbc c863 2cbd 6d82 bcbc
00000020: 2aa9 34be bc69 aebc 7984 f63c a351 5bbe
00000030: b71f 7dbd bd81 55bd 6dc1 163d 0363 55bd
00000040: 7a75 343e fb16 37bc 4559 9a3d bd68 373d
00000050: b1d5 fbbd bee4 8c3d a47b 873d 82b3 48bc
00000060: 8785 d43d c8e4 9dbc 9e59 d4bd 3046 7a3e
00000070: 1d83 a93b ebf3 293e cf29 bf3d 4fd0 383d
00000080: d07d 2b3d 429a 9b3c 9813 b5bd d1b3 7f3e
00000090: 7c65 67bd 0cde 89be 7c5b 48be dc98 2abd
000000a0: b642 dc3d 0271 a2bd 6a8d e7bc 2266 c03b
000000b0: 11f6 cfbc 204e 0f3e f3e5 60bd 98d9 123e
000000c0: f976 1bbd 7aad db3d 335f b0bc 2e46 0cbd
000000d0: 584e 443e b12a 0c3d e88d 9b3e d9d6 1b3e
000000e0: a072 74be b93a 4cbe a6d3 ff3d d9d6 c93c
000000f0: f340 21be eb8d ac3d b833 b13d c2b5 7b3c
00000100: 176d 7d3c ff59 37bd 0025 f53d c561 15bb
00000110: d5f3 43bd 083e 8dbb bb49 e53d 4375 8bbe
00000120: 56e2 93bd e089 a03d 1a45 893d 50d2 993d
00000130: 0886 813d 2904 42bd d419 e23d 6227 e6bd
00000140: 2ec8 593e ee28 a3bb 6f5e 58bd 3d0c acbd
00000150: 4995 e6bd 6377 ad3d 0cb9 03bd 11c5 863d
00000160: 8c28 453d 3730 2b3e 0f90 9abd d5aa 0ebe
00000170: 54bc 5b3d 6047 34be 2d30 99bc eec5 54be
00000180: 8387 443d c56c 133d c246 8b3d ff3a eebd
00000190: 500a bbbd d823 6dbd 7198 81bd 5224 1a3d
000001a0: be72 98be 80d3 d73d 37ad f5bd 89df 4b3d
000001b0: 181a e4bc 5039 e03d 76c7 e6bd 1411 cc3c
000001c0: 681b 38bd fbb7 283d a6c1 2abd 1a7e d83d
000001d0: c0f3 493b 2ac7 91bd 64c3 a2be da04 9abd
000001e0: f104 543d 7dcd 903c 6524 113d d3b4 cd3d
000001f0: d520 34be 436d 4bbd 3219 a4bd c001 9bbb
00000200: 89fc 73be ca1b 53bd 5e68 21be 2373 d2bd
00000210: 0c93 17bd 3fe2 3dbe dce8 0d3d 07ea 253d
00000220: 32cd e63d e018 5abd 3b26 963d 29c1 943d
00000230: 5271 fcbc 2b65 2e3c 6d6d 2fbe ada0 f539
00000240: 7d3b 033a 86b7 8bbe 149e 873d 7c86 f8bc
00000250: 71f6 033e 6cf5 15be 8d60 c13d 5f5f 1c3d
00000260: 7406 08be d3ac 92bd b295 3c3c f6af fc3c
00000270: 1c7c d23d fb24 8dbe 1547 dc38 7864 c23d
00000280: 89c4 e23d 7d67 97bd 7c7d 8c3d e048 89bc
00000290: 493b 1abe 287c 96be 8a7b 1dbd 6c51 8fbd
000002a0: 7ad1 f33d ca5d 233e b8b2 ecbb 1c03 2bbd
000002b0: d195 473d e892 ecbd 4a66 e2bc 8490 13be
000002c0: 8dcc a93d 7891 a1bd b4ee c03d 35cc 85bd
000002d0: a223 04be 8a43 80bd e0c0 953e 47c6 7c3d
000002e0: 3481 ab3d c2da d03d 471c 0e3d 7226 f43c
000002f0: 411f 8bbd 21e8 b03d b370 4e3e af25 36bd
00000300: 3a64 df3d 1a9f 0c3d d4b6 3c3d 2ab7 7abd
00000310: 82fc 9abd fd17 62be c62e 76be fb95 90be
00000320: 9573 d93d 3696 083e 0f5f 423e 3117 c83d
00000330: c229 773d 815a 32be 5b6c 1d3d 4bb9 bfbd
00000340: cb39 f13c c604 e4bd fae3 a9be 62c0 e33c
00000350: c494 24be 9be9 1cbe f246 d43d d981 02bc
00000360: 18f0 b73d 97fe e7bd f87b 193e 7be8 43bd
00000370: 84ea 5fbe 1702 36be 8079 cfbe ad86 b93c
00000380: 9405 293e d952 90bd 1c59 1cbd 15b2 8fbd
00000390: 4afa 523d 942d 1cbe d782 303e 8afd 44bd
000003a0: 8085 6dbe 6933 92bc 387e babc 25c4 983d
000003b0: f384 dabc 759f f03b eaae 903c b803 0bbe
000003c0: cba6 603e 42d9 b73d 608c 91bd 968c c03d
000003d0: 64bb d63d 3cf0 023d 8b8d 76be e9a0 6b3c
000003e0: 3468 55bd ce8e 1e3e f82c 9139 02f7 1c3e
000003f0: b689 5cba 1955 afbd 1b33 573e e679 213e
-0.21643169 -0.020323113 0.041464128 -0.07586855 0.031811055 -0.017327033 -0.042087346 -0.02301141
-0.17642656 -0.021290652 0.030092465 -0.2141786 -0.061797824 -0.05212568 0.03680556 -0.052096378
0.17622939 -0.011174913 0.07536558 0.04477762 -0.12296618 0.068795666 0.066153795 -0.012249829
0.10377031 -0.01927413 -0.103686556 0.24440837 0.0051731006 0.16596954 0.09334146 0.045120534
0.04186803 0.018994454 -0.08841628 0.24970938 -0.056493267 -0.2692722 -0.19566149 -0.041649684
0.107549116 -0.07931711 -0.028265674 0.00587155 -0.025385888 0.13994646 -0.054906797 0.14340818
-0.037955258 0.107264474 -0.02152977 -0.034246616 0.19170511 0.0342204 0.30381703 0.15218677
-0.23871851 -0.19944276 0.124915406 0.02463858 -0.15747432 0.08425506 0.08652443 0.015363159
0.015467904 -0.04476356 0.11969948 -0.002279387 -0.04783996 -0.004310373 0.111957036 -0.272379
-0.072209045 0.078387976 0.06702633 0.07510817 0.063243926 -0.04736725 0.110400826 -0.112379804
0.21267769 -0.0049792444 -0.052824434 -0.08400772 -0.11258943 0.08470037 -0.032158896 0.06580556
0.04813437 0.16717611 -0.07547008 -0.13932355 0.0536464 -0.17605352 -0.01869973 -0.20778629
0.047980797 0.035992403 0.06800605 -0.11632346 -0.09132826 -0.05789551 -0.06327904 0.037632294
-0.2977504 0.10538387 -0.11995929 0.049773727 -0.027844474 0.109484315 -0.11268513 0.024910487
-0.04494801 0.041191082 -0.041688584 0.10570927 0.0030815452 -0.07118066 -0.31789696 -0.075204566
0.051762525 0.01767611 0.0354351 0.10044255 -0.1759065 -0.049664747 -0.08012618 -0.004730433
-0.23826803 -0.051540174 -0.15762469 -0.10275867 -0.03700547 -0.18543337 0.0346459 0.04050639
0.11269607 -0.05324638 0.07331511 0.07263405 -0.030815754 0.0106442375 -0.17131586 0.00046849754
0.0005006118 -0.27288455 0.06621948 -0.030337565 0.12886979 -0.14644402 0.09442244 0.03817689
-0.13283712 -0.0716187 0.0115102995 0.030845623 0.10277578 -0.27567276 0.000105036575 0.09491819
0.11072642 -0.07392786 0.06859872 -0.016758382 -0.15061678 -0.293916 -0.038447894 -0.06997952
0.11905189 0.15953746 -0.0072234534 -0.041751012 0.04872686 -0.11551458 -0.027636666 -0.14410597
0.08290968 -0.07889074 0.09420529 -0.0653309 -0.12904218 -0.06262882 0.29248714 0.06171253
0.08374253 0.10197975 0.034694936 0.029803488 -0.067930706 0.08638025 0.20160179 -0.04446953
0.109077886 0.03433142 0.046072796 -0.061209835 -0.07567693 -0.22079463 -0.2404128 -0.28239426
0.10617749 0.13338551 0.18981574 0.097700484 0.060342558 -0.17417337 0.038433414 -0.09361514
0.029446503 -0.11133723 -0.33181745 0.027801696 -0.16072375 -0.15323488 0.10365094 -0.007965528
0.08981341 -0.11327856 0.14988697 -0.047829133 -0.21866804 -0.17774235 -0.40522385 0.022647226
0.16506034 -0.07047052 -0.03817092 -0.07016388 0.051508226 -0.15251762 0.17237411 -0.048093356
-0.23195457 -0.01784678 -0.022765264 0.074592866 -0.026674723 0.0073432275 0.01766153 -0.13575637
0.21938626 0.089769855 -0.071068525 0.09401815 0.10484961 0.031967387 -0.24077432 0.014381626
-0.05210133 0.15484163 0.0002769006 0.15328601 -0.00084128545 -0.08561153 0.21015589 0.15769157

net.2.bias f4 [64]
00000000: 12f8 063d d908 02be 94dd c3bd eb09 813d
00000010: 6aa0 3d3d b89c f13d c834 4b3d b300 243e
00000020: 245c 153e bf91 1d3d d781 e2bd 9077 5a3d
00000030: 6bb7 883c 9024 bc3d 6c11 3b3b 0bbe cd3d
00000040: d99e 1c3e d46f 03be dfc8 153e 4659 df3d
00000050: 2764 913d 8a58 80bd d575 87bd 2304 ce3d
00000060: a440 ae3d 2dc0 813c dbf5 f33c cef4 923c
00000070: 0588 11bd 9747 d23d 8f8b debc 1880 aabc
00000080: 8be1 07be 6fcd 6fbd e55e 173e 4818 eb3d
00000090: abfe 183d 51ad 39bd f057 d2bd c19e 94bd
000000a0: a36c a53c e10a e33d 3ec6 013e 204a 823d
000000b0: 7cf3 e9bd 16ae 023e 08de de3d 6738 d4bd
000000c0: d4dd e23a 793c 173e a9b1 b1bd 0d63 0e3e
000000d0: 8bf6 e33d 11f7 6e3d 5299 993d b258 d23d
000000e0: 682c c1bd f265 8bbd 6e4f 83bd 6000 5bbd
000000f0: 90e0 70bd f062 cb3c dbfe 1d3c 5df4 6e3d
0.032951422 -0.12698688 -0.09563747 0.0630072 0.04629556 0.1179747 0.049610883 0.16015892
0.1458593 0.038469072 -0.11059921 0.05333668 0.016689023 0.09186661 0.002854432 0.100460134
0.1529497 -0.12835628 0.14627407 0.109056994 0.07099181 -0.062668875 -0.066142716 0.10059383
0.08508423 0.015838707 0.029780319 0.017938998 -0.03553011 0.10267561 -0.027166156 -0.020813033
-0.13269632 -0.058545526 0.14782293 0.11479241 0.037352245 -0.045331303 -0.10270679 -0.072568424
0.020193404 0.11086059 0.1267328 0.063617945 -0.11423394 0.12761721 0.10882193 -0.103623204
0.0017308542 0.14769162 -0.08676464 0.13904972 0.11131009 0.05834109 0.07499947 0.102708235
-0.09432298 -0.06806554 -0.064116344 -0.053467155 -0.05880791 0.02482745 0.009643282 0.05833851

net.4.weight f4 [2, 64]
00000000: 777a 763e c46a 4c3e 614e a3be 7fd3 b63e
00000010: 4572 073e b293 fdbb 4ba7 f73d 6fee c63e
00000020: f292 1a3e c3b7 c93e 6d37 5b3d 224c 22be
00000030: 333d b23b d775 543e 7c38 2fbd 14ea a53e
00000040: 2fd6 8d3e a654 8cbe 7744 f4be ab3b 9c3e
00000050: c682 27bf 44ad 94bd 69b8 efbe 6bc7 0bbe
00000060: 740a 743e 77a6 d5be 11d3 dbbe 6895 66be
00000070: c7ac bcbe ab79 0abd 320a de3d ffff 10be
00000080: 5482 ba3e 0f14 843e 4688 a13e e0e5 9b3e
00000090: 93b9 083e 396a 723e 0b6d db3d 3fd4 85be
000000a0: 87d6 bd3e 0935 a6bd 808c b83c 7440 85be
000000b0: a48f a9bd d51b 1fbc c9cd 5dbe 5b5b e4be
000000c0: c1a1 a4bd 7448 dcbd 0e60 8e3d a6d8 713d
000000d0: 22c8 5b3c e2a4 f1bd 777b 673e 4bca e03d
000000e0: a002 893c 9631 b0bd c4fa fc3d cc4a 70bd
000000f0: 1668 3ebe 1cca 4a3d 593a cf3d ec2c f6bd
00000100: 061c e6bd efcb 063e 1851 a83d d95a 993e
00000110: 85f3 303e 81dc 2ebe bec5 023e c597 d43e
00000120: 705a debd b1f7 9d3e d17a 68bd db45 f4bd
00000130: 56b0 9dbd b159 8e3e e5c6 38be a943 233e
00000140: db3e 6b3e 9de2 dbbe e5e7 cdbd 86c1 953e
00000150: 8aa7 0dbf e00e 14bd 5780 17bf a1e1 33be
00000160: 06ac 8e3e 02fe 02bf 94cd cdbe d715 61be
00000170: d796 3dbf bd74 883d 0d4a 9abd bb6b 5abe
00000180: 235f d13e f39e 8d3e 0d56 563e 5c72 8e3e
00000190: 6671 05be 3c85 2f3e 802a aa3e 0b44 a2be
000001a0: 0309 883e 3eee 1ebe ec75 863e 37bf 3abe
000001b0: f0ab 59bd c208 9f3e a16a 35be 8313 9ebe
000001c0: 10e9 58bc f7fc 7dbe 1442 18bf 5b7a e9bd
000001d0: dcc0 34be cb5a b2bd e46b 8d3e 91ed f33d
000001e0: d8f6 c73d 27c4 c03d da42 89bd 56d9 a63d
000001f0: 1c01 8cbe 501b 403d a52d 6cbe 32a7 debe
0.24070154 0.19962603 -0.31895736 0.35708234 0.13227184 -0.007738554 0.120924555 0.38853785
0.15095118 0.39398012 0.053519655 -0.15849355 0.0054394244 0.20748077 -0.042778477 0.3240515
0.27702472 -0.27408332 -0.47708485 0.30514273 -0.6543392 -0.0725961 -0.4682038 -0.1365029
0.23832113 -0.41728565 -0.42934468 -0.22517931 -0.3685057 -0.033807438 0.10841788 -0.14160155
0.36427557 0.25796553 0.3154928 0.30448818 0.13352041 0.23673333 0.10714158 -0.26138493
0.37077734 -0.081155844 0.022527933 -0.26025736 -0.082793504 -0.0097112255 -0.21660532 -0.4460095
-0.080386646 -0.10756007 0.06951915 0.059044503 0.013414415 -0.11799027 0.22605692 0.10976084
0.016724885 -0.08603208 0.12352517 -0.05866508 -0.18594393 0.049509153 0.10118551 -0.12020287
-0.11235814 0.13163732 0.082185924 0.29952124 0.17280395 -0.17076303 0.12770745 0.4152204
-0.10857093 0.30853036 -0.05675775 -0.119273864 -0.07699649 0.27802804 -0.18044622 0.15943779
0.22973196 -0.4294633 -0.10053996 0.2924921 -0.5533377 -0.036147 -0.59180206 -0.1756654
0.27865618 -0.51168835 -0.40195906 -0.21980987 -0.7405829 0.06662891 -0.07533655 -0.21330158
0.40892896 0.2766033 0.20931263 0.27821624 -0.1303154 0.17140669 0.3323555 -0.31692538
0.26569375 -0.1552057 0.26261842 -0.18237005 -0.053142488 0.3106137 -0.17716457 -0.3087426
-0.01323916 -0.2480353 -0.5947583 -0.114002906 -0.17651695 -0.08708724 0.27621377 0.119105466
0.097638786 0.09412413 -0.06702204 0.08146922 -0.27344596 0.046901047 -0.23064287 -0.43486935

net.4.bias f4 [2]
00000000: cf44 93bc 9bf7 c43d
-0.017977146 0.096175395
