demo/cartpole/best.ckpt (torch, 20351 bytes, 6 tensors)

net.0.weight f4 [64, 4]
0	0x3a36515e	0.00069548737
1	0x3bf06015	0.0073356726
2	0x3f3d203a	0.738773
3	0x3d9ece6f	0.07754218
4	0x3ebd5052	0.36975342
5	0x3e642ceb	0.2228276
6	0x3ee9f312	0.4569326
7	0xbe3dd631	-0.18538739
8	0x3e525f37	0.20544134
9	0x3e76f2bc	0.24116033
10	0x3d43e412	0.047824927
11	0xbe759868	-0.2398392
12	0x3ef1e636	0.4724595
13	0x3eddacd3	0.43295917
14	0xbecb64ab	-0.3972524
15	0x3e97921f	0.2960367
16	0xbd9b3540	-0.07578516
17	0x3f10affa	0.5651852
18	0x3d3cafe9	0.0460662
19	0x3ed36378	0.41286826
20	0xbd340a84	-0.04395534
21	0xbdd242f8	-0.102666795
22	0xbe8c496a	-0.2739976
23	0xbef1d7fc	-0.47235096
24	0x3e1fd77c	0.15609545
25	0x3df06e42	0.1173978
26	0x3b4f8111	0.0031662623
27	0x3e0cc001	0.13745119
28	0x3e9189bf	0.28425404
29	0x3eccb319	0.3998039
30	0x3f684f84	0.9074633
31	0x3ea28355	0.31740823
32	0x3eacad0d	0.33725777
33	0x3eaceb43	0.3377324
34	0xbf562bae	-0.836604
35	0xbe0f1471	-0.13972642
36	0xbecc2008	-0.39868188
37	0x3d6c3d86	0.05767586
38	0x3e700042	0.23437598
39	0xbec8c59f	-0.39213273
40	0xbe790cf7	-0.24321352
41	0xbe928f28	-0.28624845
42	0xbde25111	-0.110506184
43	0xbd9b2f07	-0.07577329
44	0x3ead3db6	0.33836144
45	0xbea43bc8	-0.3207686
46	0xbf0ba3ef	-0.5454702
47	0xbdd433b8	-0.10361427
48	0xbeae287e	-0.34015268
49	0x3ec9d1c1	0.39417842
50	0xbf51fb21	-0.8202382
51	0xbe02410b	-0.12720124
52	0xbf32082f	-0.6954374
53	0xbd206cbb	-0.039166193
54	0x3e083490	0.13301301
55	0x3ee6eda8	0.45103192
56	0xbf0a65c8	-0.54061556
57	0x3d69866b	0.057012957
58	0xbe348e76	-0.1763247
59	0x3e4e3269	0.20136417
60	0xbe8aebd3	-0.27133045
61	0x3e8f4954	0.27985632
62	0x3f152ccd	0.58271486
63	0x3d7c2bc8	0.06156519
64	0xbec5a581	-0.38602832
65	0x3ec25b70	0.37960386
66	0xbe63b114	-0.22235519
67	0x3eca7a0b	0.39546236
68	0xbec9e21e	-0.39430326
69	0xbe8b641f	-0.27224824
70	0x3e22f9c9	0.15915598
71	0x3cf9f83f	0.03051388
72	0xbda8a9a5	-0.08235482
73	0xbee6c9a5	-0.45075718
74	0xbe787ab6	-0.2426556
75	0x3ee0f0b6	0.43933648
76	0x3e8922e6	0.26784438
77	0xbde3a853	-0.1111609
78	0xbf2b57f6	-0.6693109
79	0xbebe7ed9	-0.37206152
80	0xbebb47dc	-0.36578262
81	0xbc4e7d80	-0.012603164
82	0xbf182653	-0.5943348
83	0xbe46ce77	-0.19414698
84	0xbe2a5e8b	-0.16637628
85	0xbd8397e3	-0.064254545
86	0x3f5c7a21	0.86123854
87	0x3c4d2125	0.012520109
88	0x3db3f484	0.08786872
89	0xbdf7be51	-0.12096847
90	0x3f0ccbd0	0.54998493
91	0xbe9c6596	-0.30546254
92	0xbc443e02	-0.011977674
93	0x3db09e6f	0.08623969
94	0x3f01550b	0.5052039
95	0x3e4ddfc3	0.2010489
96	0x3e8b097e	0.2715568
97	0x3e84d2aa	0.25941974
98	0x3e265b5a	0.16245785
99	0xbe21db0a	-0.15806213
100	0xbd2d3c66	-0.04229393
101	0xbdb90129	-0.090334244
102	0xbf65c926	-0.89760053
103	0x3ea9ed23	0.33188733
104	0x3da34039	0.07971234
105	0xbdb8253d	-0.08991478
106	0xbf58d1c6	-0.8469509
107	0xbe7cde65	-0.24694212
108	0xbe2ee90e	-0.17081091
109	0x3e73251b	0.23744623
110	0x3e1bba45	0.15207775
111	0x3ea51957	0.32245895
112	0x3e739a51	0.23789336
113	0x3e5759e2	0.21030381
114	0x3dbc1539	0.091837354
115	0xbde9802c	-0.114014
116	0xbf0fcb0f	-0.5616922
117	0xbece0fe0	-0.40246487
118	0x3e55288f	0.20816253
119	0x3e92bee1	0.28661254
120	0xbe304b55	-0.17216237
121	0x3e4b56ca	0.19857326
122	0x3f4ee30b	0.8081519
123	0x3e99021a	0.29884416
124	0xbd3d7ef3	-0.046263646
125	0x3d350d9d	0.044202436
126	0xbf7551d7	-0.95828
127	0xbd42640c	-0.047458693
128	0x3f1aa971	0.604148
129	0xbef6df0f	-0.48217055
130	0xbd3276a0	-0.04357016
131	0x3edab61e	0.4271707
132	0x3ea8cfed	0.32971135
133	0xbe720cc7	-0.23637687
134	0xbee9c005	-0.45654312
135	0x3dccf1c0	0.10007048
136	0xbefd5ff7	-0.49487278
137	0xbcccd8e4	-0.025005765
138	0x3cce7c9e	0.025205906
139	0x3e89acb4	0.26889575
140	0x3db57772	0.08860673
141	0xbefb0857	-0.490298
142	0xbf084b29	-0.53239685
143	0x3e95735b	0.29189572
144	0xbe6170c2	-0.2201567
145	0x3bdbc058	0.006706279
146	0x3f294575	0.6612161
147	0xbe12c060	-0.14331198
148	0xbeb6b659	-0.35685995
149	0x39f1679c	0.00046044297
150	0x3f7efe68	0.99606943
151	0xbe338d7c	-0.17534441
152	0x3ec47e39	0.3837755
153	0x3e012c74	0.12614614
154	0xbe1587eb	-0.1460263
155	0x3e2284bb	0.15870945
156	0xbe071912	-0.13193157
157	0x3e794c25	0.24345453
158	0x3e95908d	0.29211846
159	0x3cc0c006	0.023529064
160	0x3d639a35	0.055566985
161	0x3e36736d	0.17817469
162	0xbea9bb3e	-0.33150667
163	0x3e53be73	0.2067812
164	0x3ed5ad90	0.4173398
165	0xbe1d056d	-0.15334101
166	0xbf72844f	-0.94733137
167	0xbea55329	-0.3229001
168	0x3eb50778	0.3535726
169	0xbe5785dd	-0.21047159
170	0xbe91ac6e	-0.28451866
171	0xbdfd3d02	-0.12365152
172	0xbf0ac71a	-0.54210055
173	0x3e807413	0.25088558
174	0x3ed5db6e	0.41768974
175	0x3e5c82f9	0.21534337
176	0xbf11551e	-0.56770504
177	0x3ea91394	0.3302275
178	0x3da103ae	0.0786203
179	0xbe4e2739	-0.2013215
180	0xbeb7b52e	-0.35880417
181	0x3d6de681	0.058081154
182	0xbea2c98e	-0.317944
183	0xbeca1bc7	-0.39474317
184	0x3e571a56	0.2100614
185	0x3eae8999	0.34089354
186	0x3f185fff	0.5952148
187	0xbeb6bc3c	-0.35690486
188	0x3e885dca	0.26634055
189	0xbcbe7579	-0.023249375
190	0xbefe162e	-0.49626297
191	0xbdf3f60e	-0.119121656
192	0x3ee54c57	0.44784805
193	0xbea95839	-0.3307512
194	0xbf42abd0	-0.76043415
195	0xbe015b33	-0.12632446
196	0xbe1b423e	-0.15161988
197	0x3d5ca37d	0.053866852
198	0x3e8973ab	0.2684606
199	0x3ececfee	0.40393013
200	0x3eae5acc	0.34053648
201	0x3ee79f1e	0.45238584
202	0xbe051707	-0.12997065
203	0x3d7ba2a1	0.061434392
204	0x3ead2fc9	0.3382552
205	0x3cbad377	0.022805912
206	0x3f25846b	0.6465518
207	0x3e99f158	0.30066943
208	0xbdc692dd	-0.09695981
209	0xbeb1780b	-0.34661898
210	0x3f4a6d21	0.7907277
211	0x3ea40d1e	0.32041258
212	0x3ec695b8	0.387861
213	0xbe504b28	-0.2034117
214	0x3f1bc3d3	0.6084568
215	0x3eefb7e6	0.4681999
216	0x3dde06ee	0.108411655
217	0xbcd3d7b5	-0.025859693
218	0xbe88aed2	-0.26695877
219	0x3ed0aaa2	0.40755183
220	0x3e20c977	0.15701853
221	0xbd94dd32	-0.07268752
222	0x3efd6e73	0.4949833
223	0x3e449e57	0.19201027
224	0x3d0dd242	0.034624346
225	0x3e9ba8d7	0.30402252
226	0x3ed09576	0.4073903
227	0x3e79a0ed	0.24377795
228	0xbd92d21e	-0.07168983
229	0x3f0965fd	0.53671247
230	0x3e978b0a	0.29598266
231	0x3ca34e28	0.019934729
232	0x3f0d77f7	0.55261177
233	0xbe80c533	-0.2515045
234	0xbefedd28	-0.49778104
235	0xbd53fb2c	-0.051753208
236	0x3e1135cf	0.14180683
237	0xbefecbce	-0.49764866
238	0x3ec7d16d	0.39026967
239	0xbe3771fa	-0.17914572
240	0xbd92b119	-0.07162685
241	0xbeaf2f4b	-0.3421577
242	0xbef10f82	-0.47082144
243	0x3e4fba5a	0.20285931
244	0x3e28429d	0.16431661
245	0xbd0850c6	-0.033280157
246	0x3f76875f	0.9630031
247	0x3e6d8f60	0.23199224
248	0xbea62ff9	-0.32458475
249	0xbe1e4d2a	-0.15459123
250	0xbf5541ec	-0.83303714
251	0xbe217259	-0.15766276
252	0xbe9ea6ef	-0.30986735
253	0xbe0e0dea	-0.13872495
254	0xbf0a2a83	-0.5397112
255	0x3e412332	0.18861082

net.0.bias f4 [64]
0	0xbde1518e	-0.110018834
1	0xbdba9a74	-0.09111491
2	0xbe855ef8	-0.26049018
3	0xbeba82f2	-0.36428028
4	0xbea4da5f	-0.32197854
5	0x3db35ac4	0.087575465
6	0x3ec196fc	0.37810504
7	0x3ea5efd9	0.32409552
8	0xbe815abe	-0.25264543
9	0xbe1b9f5b	-0.15197508
10	0xbebe58fa	-0.3717726
11	0x3e8af328	0.27138638
12	0x3d8ac7a1	0.067763574
13	0xbeb48f1b	-0.3526543
14	0xbe4f6437	-0.20253073
15	0x3ecc4d54	0.39902747
16	0xbe0792fc	-0.13239664
17	0xbf01d65c	-0.5071771
18	0xbed366a1	-0.41289237
19	0x3ede2faf	0.43395755
20	0x3f0e10c2	0.5549432
21	0xbdfc8a6d	-0.1233109
22	0x3efaf213	0.49012813
23	0x3e5a24cd	0.21303101
24	0xbe5a6c3e	-0.21330354
25	0x3e6eb3de	0.23310801
26	0xbe88d097	-0.2672164
27	0xbe41b93b	-0.18918316
28	0xbeec49d0	-0.46150064
29	0x3e3d3107	0.18475734
30	0xbe3fd3a3	-0.18733077
31	0xbe34d779	-0.17660321
32	0xbec9b223	-0.3939372
33	0x3cf1ce63	0.029517358
34	0xbf113451	-0.56720454
35	0xbe53499b	-0.20633547
36	0x3e8c91f5	0.27455106
37	0x3eee7ab8	0.46578002
38	0xbe8312f0	-0.25600386
39	0x3c77afaa	0.015117565
40	0x3e8bac26	0.27279776
41	0xbe963e97	-0.29344627
42	0x3df5ec21	0.12007929
43	0x3eccf39a	0.40029603
44	0xbf1cdc4f	-0.61273664
45	0x3e0a56bc	0.13509649
46	0xbd06d99c	-0.032922372
47	0x3edb2855	0.42804208
48	0x3e778470	0.24171615
49	0x3eae1f91	0.34008458
50	0xbde0fafb	-0.10985371
51	0x3ec5e7b0	0.38653326
52	0x3d7c9ea8	0.061674744
53	0x3e3dd1b6	0.1853703
54	0x3f0242fe	0.5088347
55	0xbe62fca3	-0.22166686
56	0x3eb59696	0.3546645
57	0xbecaa88d	-0.3958172
58	0x3d2788bc	0.040901884
59	0xbea38b09	-0.31942013
60	0xbefb6c56	-0.4910609
61	0xbe6bf27d	-0.2304172
62	0x3eb8a1e9	0.36061028
63	0x3e97daf0	0.29659224

net.2.weight f4 [64, 64]
0	0xbe953527	-0.29142115
1	0xbde48963	-0.11159017
2	0x3dbb2e65	0.091397084
3	0x3da7c776	0.08192341
4	0x3e193bc4	0.14964205
5	0xbd042630	-0.03226298
6	0x3d2707cf	0.04077893
7	0xbd3952e8	-0.04524508
8	0xbe44aac2	-0.19205764
9	0xbe0b3e7b	-0.13598053
10	0xbb289526	-0.0025723665
11	0x3dff8281	0.124760635
12	0xbc8b8058	-0.017028973
13	0x3bb631e1	0.0055601452
14	0x3d0f3bda	0.03496919
15	0xbdc940e5	-0.09826831
16	0x3ea80a17	0.32820198
17	0xbddecf11	-0.108793385
18	0x3d27fa02	0.04100991
19	0xbd56450f	-0.052311953
20	0x3d621981	0.055200104
21	0xbebc7f9b	-0.36816105
22	0xbdf5779b	-0.119857036
23	0xbd63b4ad	-0.055592228
24	0x3e0b877d	0.13625903
25	0xbca53dcb	-0.020171067
26	0xbe5843d5	-0.21119626
27	0x3ddf4822	0.1090243
28	0x3deab697	0.114606075
29	0x3da0284b	0.07820185
30	0xbe43d11f	-0.19122742
31	0xbf66ba9c	-0.90128493
32	0xbd9acd61	-0.07558704
33	0x3d0b2a46	0.033975862
34	0xbe20e10e	-0.15710852
35	0x3e2055ca	0.15657726
36	0xbbc72ac7	-0.0060780975
37	0xbdf70ccf	-0.1206299
38	0xbdc78988	-0.09743029
39	0x3e5843da	0.21119633
40	0x3e12001b	0.14257853
41	0xbeb7c7d3	-0.3589464
42	0xbd88ba39	-0.06676144
43	0xbddfa238	-0.10919613
44	0xbd686dfd	-0.056745518
45	0xbcb8bd29	-0.022551136
46	0xbe06ff65	-0.13183363
47	0x3e783822	0.24240163
48	0x3e982e11	0.29722646
49	0x3e068143	0.13135247
50	0xbe02e953	-0.12784319
51	0x3db59e0e	0.08868037
52	0xbdb573fa	-0.088600114
53	0x3c46b83d	0.012128887
54	0xbd9a0b97	-0.07521742
55	0xbd9fd65b	-0.07804557
56	0xbdcee769	-0.10102732
57	0xbe07ffd5	-0.13281186
58	0x3e22be77	0.15892969
59	0xbd3f8b7e	-0.04676389
60	0x3e271531	0.16316678
61	0xbe2856d7	-0.16439377
62	0x3e0d7d36	0.13817295
63	0x3e20210e	0.1563761
64	0x3c1fec10	0.0097608715
65	0xbd98489a	-0.07435723
66	0x3e1b95a2	0.15193799
67	0xbb2a91c5	-0.0026026827
68	0xbe442783	-0.19155698
69	0x3d7079f5	0.058710057
70	0x3d6ae434	0.057346538
71	0xbe8c5a95	-0.2741286
72	0x3d95df87	0.07318025
73	0x3da0a8c6	0.07844691
74	0x3dae1d87	0.08501726
75	0x3e425ea9	0.18981422
76	0x3e2f0134	0.17090303
77	0x3df7f3ba	0.12107034
78	0xbd02d366	-0.031939887
79	0x3c791473	0.015202629
80	0xbe78c344	-0.24293238
81	0xbd9ad9ec	-0.075610965
82	0xbde200f5	-0.11035339
83	0x3d15d61f	0.036581155
84	0x3dddeee5	0.10836581
85	0x3e6de278	0.23230922
86	0xbd87c898	-0.06630057
87	0xbf2ac918	-0.66713095
88	0xbdaed7f6	-0.08537285
89	0xbc3dea28	-0.011591472
90	0xbe6702fd	-0.22559734
91	0x3dabc9ae	0.08388077
92	0xbe214fbf	-0.15753077
93	0xbeaeb7e3	-0.3412467
94	0x3dd73f5b	0.10510131
95	0xbe792f6a	-0.24334493
96	0x3e00c19a	0.12573853
97	0x3eef8441	0.4678059
98	0x3d29afa2	0.041427262
99	0xbd6a568a	-0.057211436
100	0xbd9a5a94	-0.07536808
101	0xbe1b40ab	-0.15161388
102	0xbcdb4a24	-0.026768751
103	0xbd5ae3e5	-0.053439993
104	0x3d0ed6aa	0.03487269
105	0x3de4e858	0.111771286
106	0x3d64a293	0.055819105
107	0xbe5f5f6c	-0.21813744
108	0xbd87402d	-0.066040374
109	0x3bdb19c8	0.006686423
110	0x3c5cc879	0.013475531
111	0x3e25a3c2	0.1617575
112	0x3e52d093	0.20587377
113	0xbeddf7ae	-0.43353027
114	0x3cf3ebae	0.029775467
115	0xbe08ea43	-0.13370614
116	0xbee3dd32	-0.44504696
117	0xbe820c29	-0.25399902
118	0xba53ff09	-0.00080870144
119	0xbd96c8ab	-0.07362493
120	0xbe2fea0a	-0.17179123
121	0xbc21c206	-0.009872919
122	0x3e9f6765	0.3113357
123	0xbe2fec78	-0.1718005
124	0xbe125ca2	-0.14293149
125	0xbdabacde	-0.08382581
126	0x3dfef561	0.12449146
127	0xbe154533	-0.14577179
128	0xbdab3dc9	-0.08361394
129	0xbe4be640	-0.19912052
130	0xbe158179	-0.14600171
131	0x3d8f846b	0.070076786
132	0x3caf4d1c	0.021399073
133	0xbb47ba64	-0.0030476088
134	0xbd35c5c2	-0.04437805
135	0xbd23bf3a	-0.03997729
136	0x3d8f469b	0.06995889
137	0x3c629c9e	0.013831286
138	0x3d92a429	0.07160217
139	0xbdb807b2	-0.08985843
140	0x3c59b647	0.013288087
141	0x3db900f1	0.09033383
142	0x3e49a329	0.19691147
143	0x3da1ae07	0.07894521
144	0x3d6e2f5d	0.058150638
145	0xbcc21766	-0.023692798
146	0xbdd61e76	-0.10455029
147	0xbe0d3042	-0.1378794
148	0xbd9b0a73	-0.075703524
149	0x3d831168	0.06399804
150	0x3dd5c886	0.104386374
151	0xbd1ad39f	-0.037799474
152	0xbd84faa4	-0.064931184
153	0xbd8e2cb5	-0.06942121
154	0xbcbe5074	-0.023231722
155	0x3ee3c4a8	0.44485974
156	0x3d8d46e7	0.06898289
157	0x3de6157f	0.11234569
158	0x3edd255a	0.4319256
159	0xbe1e577b	-0.15463059
160	0xbd9b03ee	-0.07569109
161	0xbe37bb20	-0.17942476
162	0xbda2c76a	-0.079481915
163	0xbe429dc3	-0.19005494
164	0x3cfdb70b	0.03097107
165	0x3e0defe0	0.13861036
166	0xbddc3a96	-0.10753362
167	0xbdb45d08	-0.08806807
168	0xbd92cf07	-0.071683936
169	0x3dabf381	0.08396054
170	0x3e1b3306	0.15156183
171	0xba7a6458	-0.00095516955
172	0x3da35532	0.07975234
173	0xbbd0eedc	-0.0063761305
174	0x3cf5f0f8	0.03002213
175	0xbe34ebea	-0.17668119
176	0xbe6e24d3	-0.23256235
177	0xbd5c4241	-0.053774122
178	0xbd9a10b7	-0.07522719
179	0xbdc10c80	-0.09426212
180	0x3da62355	0.08112208
181	0x3d9fabc4	0.077964336
182	0xbd711cdb	-0.05886541
183	0xbe562c1c	-0.20915264
184	0xbdf04d62	-0.117335096
185	0xbe36df20	-0.17858553
186	0x3d4f771e	0.05065071
187	0x3e1590cc	0.14606017
188	0x3b83357f	0.00400418
189	0xbc997530	-0.018732637
190	0x3d3d198b	0.046166938
191	0xbcbf600a	-0.023361225
192	0x3ef022bf	0.4690151
193	0xb8bfabc8	-9.1395865e-05
194	0x3c923fe2	0.017852727
195	0x3e0c3b4a	0.13694492
196	0xbd52375c	-0.051322326
197	0x3bee3e5f	0.007270619
198	0x3dd8984e	0.10575925
199	0xbdd0d505	-0.1019688
200	0x3e3042eb	0.17213027
201	0x3dc1a0b6	0.09454481
202	0xbe18e51f	-0.14931153
203	0x3db7dd9d	0.08977816
204	0x3c47e00e	0.012199415
205	0x3db5b0b7	0.08871596
206	0x3cd88e58	0.026435062
207	0xbd556c2c	-0.052105114
208	0x3d5c8bb2	0.05384416
209	0x3dda6de1	0.10665489
210	0xbd14b4d9	-0.036305282
211	0xbcf579d9	-0.029965328
212	0x3dffb8d5	0.12486426
213	0xbc9e0856	-0.019291084
214	0xbd88ba27	-0.06676131
215	0x3dcc2079	0.09967131
216	0xbdbe9ce5	-0.09307269
217	0x3d1fabe6	0.038982294
218	0x3ea25344	0.31704152
219	0xbe65788a	-0.22409263
220	0x3d2a0db9	0.041516993
221	0x3e088400	0.13331604
222	0x3eab2dd2	0.33433396
223	0x3f381fd3	0.7192356
224	0xbdc4f063	-0.09616163
225	0x3dceeb0e	0.10103427
226	0x3d139a3a	0.036035754
227	0x3d28879d	0.041144956
228	0xbdb04360	-0.08606601
229	0x3d115989	0.035485778
230	0x3c730dc6	0.014834827
231	0xbde1fc78	-0.11034483
232	0x3d867b41	0.065664776
233	0x3e4c474c	0.19949073
234	0x3d23c4a9	0.03998247
235	0x3c26b0cf	0.01017399
236	0x3d9d3940	0.07676935
237	0xbdc07ff9	-0.09399409
238	0xbded6903	-0.11592295
239	0xbde899b9	-0.11357445
240	0x3d51fd71	0.05126709
241	0x3d7d5b77	0.061854806
242	0x3d9ff783	0.07810881
243	0x3cbddac9	0.023175614
244	0xbcadfe5e	-0.021239456
245	0x3d0d9be3	0.034572493
246	0xbd323e07	-0.043516185
247	0xbe68d393	-0.22736959
248	0x3dbb1873	0.09135523
249	0xbe187abc	-0.1489057
250	0x3caad91c	0.020855479
251	0x3d3b027b	0.045656662
252	0x3d7a21c6	0.061067365
253	0xbd0bc951	-0.034127537
254	0x3da9ccf7	0.08291047
255	0xbda1c3e3	-0.078986906

net.2.bias f4 [64]
0	0x3e015636	0.12630543
1	0xbdbfb0ec	-0.09359917
2	0xbd3babca	-0.045818128
3	0xbda70be4	-0.08156565
4	0xbe1bb95f	-0.15207432
5	0xbdcf7abe	-0.10130833
6	0x3d25d440	0.04048562
7	0x3d56fd36	0.052487575
8	0xbcbd616d	-0.023117745
9	0x3de4de1d	0.11175177
10	0x3dfc9594	0.12333217
11	0x3d87b43b	0.06626173
12	0xbe20461d	-0.15651746
13	0xbcfc9dfc	-0.030837052
14	0xbdbaabbe	-0.091147885
15	0xbd285b02	-0.041102417
16	0xbd6dbb35	-0.058039863
17	0x3df0bfb5	0.11755315
18	0x3d56a5d0	0.052404225
19	0x3cfd8d5c	0.030951194
20	0x3d84fe74	0.064938456
21	0x3df90311	0.12158788
22	0x3ca10b00	0.019658566
23	0x3dfd1790	0.1235801
24	0x3d9f40d0	0.07776034
25	0x3df273ca	0.11838491
26	0x3dab73c7	0.08371692
27	0x3e098352	0.13429001
28	0x3dbd6f01	0.09249688
29	0xbd209a1c	-0.03920947
30	0x3d9e40d5	0.077272095
31	0x3c050277	0.008118263
32	0x3e1f6987	0.15567599
33	0xbda3989e	-0.07988094
34	0xbd157c51	-0.03649551
35	0x3db66228	0.089054406
36	0xbd97a0ed	-0.07403741
37	0xbdf9150b	-0.12162217
38	0x3de03ce0	0.10949111
39	0x3d0e7dc2	0.0347879
40	0xbd2d5539	-0.042317603
41	0x3d0596e0	0.03261459
42	0x3df2a986	0.1184874
43	0x3d87440e	0.06604777
44	0x3dd88d7a	0.105738595
45	0xbdd2bb54	-0.10289636
46	0x3da97aee	0.082754
47	0xbc7b2283	-0.015328052
48	0xbde54068	-0.11193925
49	0xbc9d422c	-0.019196592
50	0x3d17ae46	0.037031434
51	0xbd6ec6be	-0.058295004
52	0xbd91cf8e	-0.07119666
53	0x3e07d207	0.13263713
54	0xbdf7d648	-0.12101418
55	0x3df5a224	0.119938165
56	0x3d660646	0.056158327
57	0x3d9d38b1	0.07676829
58	0x3d9c7db5	0.07641164
59	0xbd51336c	-0.05107443
60	0x3d7d1058	0.061783165
61	0x3d9020f3	0.070375346
62	0xbcd5337f	-0.026025532
63	0x3dfda95d	0.12385819

net.4.weight f4 [2, 64]
0	0x3e628005	0.22119148
1	0x3e8ffa0d	0.2812046
2	0x3e5d6632	0.21621016
3	0xbe79f528	-0.24409926
4	0x3dcb0525	0.099130906
5	0xbf1d58c9	-0.614636
6	0x3d371d20	0.04470551
7	0xbe6ab080	-0.22918892
8	0x3d8ac262	0.06775357
9	0xbe480c74	-0.19536
10	0xbe53b3f4	-0.20674115
11	0xbe32db1c	-0.17466396
12	0x3d4c20e6	0.049836062
13	0x3dc26fc8	0.09493977
14	0xba958680	-0.0011407882
15	0x3b63b439	0.0034744872
16	0x3e8d9edd	0.27660266
17	0x3e4cd362	0.20002511
18	0x3db5488f	0.0885173
19	0x3edbd3f8	0.42935157
20	0x3d78bb20	0.06072533
21	0xbdb63ecc	-0.08898696
22	0xbe2f3133	-0.17108612
23	0xbdece3a6	-0.11566858
24	0xbe60babc	-0.21946234
25	0x3e9cb77c	0.30608737
26	0xbe50ccf8	-0.2039069
27	0xbea72bfc	-0.32650745
28	0x3e8cc4cd	0.27493897
29	0x3e365406	0.1780549
30	0xbda84001	-0.08215333
31	0xbec5d8ae	-0.38641876
32	0x3ea7e78f	0.32793853
33	0xbd8d6016	-0.069030926
34	0xbe9697e1	-0.2941275
35	0x3b1246ef	0.0022320112
36	0x3d8eff70	0.069823146
37	0x3d534ff3	0.051589917
38	0x3eacdba4	0.33761322
39	0xbe464cea	-0.19365278
40	0x3e59eb8b	0.21281259
41	0x3ecd0528	0.40042996
42	0xbde0e1fa	-0.109806016
43	0xbeebc66a	-0.46049815
44	0x3ed18098	0.40918422
45	0xbddb4386	-0.107062384
46	0x3e9d4ddd	0.30723467
47	0x3c0b5777	0.00850474
48	0x3e9eb677	0.30998585
49	0xbe3b9cd5	-0.18321545
50	0xbe052ad9	-0.13004626
51	0xbf20a0e9	-0.6274553
52	0x3dbcb922	0.09214999
53	0x3dcd5848	0.10026604
54	0xbda3da70	-0.08000648
55	0x3e9a05a8	0.3008244
56	0x3e640c0b	0.22270219
57	0x3ecdf4eb	0.4022592
58	0x3e8e11a9	0.2774785
59	0xbe809e2e	-0.25120682
60	0xbd53dfe1	-0.05172718
61	0x3e00eff9	0.12591542
62	0x3ea19f86	0.3156702
63	0x3ebf85bf	0.37406728
64	0x3ec9b9f2	0.39399678
65	0xbed5ce48	-0.41758943
66	0x3e20c98b	0.15701883
67	0x3d7ae80a	0.061256446
68	0xbe21aff7	-0.15789782
69	0xbdf6ae95	-0.12045018
70	0x3df5f0ea	0.12008841
71	0xbda4d608	-0.08048636
72	0xbeea4fbc	-0.45763958
73	0xbda3b336	-0.07993166
74	0xbe7ea64b	-0.24868123
75	0xbe147cb0	-0.1450069
76	0xbf03545f	-0.51300615
77	0xbdc6c7dd	-0.0970609
78	0xbda072d8	-0.07834405
79	0xbde96ceb	-0.113977276
80	0x3e4d7f5f	0.2006812
81	0xbda5a884	-0.080887824
82	0x3cb6b10c	0.02230122
83	0x3ea91908	0.3302691
84	0xbe035a83	-0.12827496
85	0xbdf41e7f	-0.11919879
86	0x3dac52f8	0.084142625
87	0x3d6ca3a5	0.05777325
88	0xbef0500e	-0.46936077
89	0x3e67d872	0.22641161
90	0xbe3d6181	-0.18494226
91	0xbea33385	-0.31875244
92	0x3eb6da2e	0.35713333
93	0x3e9d886e	0.3076815
94	0xbe913b79	-0.28365687
95	0xbeb13b3e	-0.3461551
96	0x3e1c422f	0.15259622
97	0x3d823fca	0.06359823
98	0xbd1fa512	-0.038975783
99	0xbf0f58f1	-0.5599509
100	0xbd675091	-0.05647332
101	0xbdb3dace	-0.08781968
102	0x3ea57ad1	0.32320264
103	0x3d5a53a6	0.05330243
104	0x3e7432c1	0.23847486
105	0x3e7149ae	0.23563263
106	0xbd864228	-0.06555587
107	0xbf23f1ee	-0.6404103
108	0x3ecf1650	0.4044671
109	0xbee1df0e	-0.4411549
110	0x3d994313	0.074834965
111	0xbd561173	-0.052262735
112	0x3ec1f0e5	0.378791
113	0x3df2c0d4	0.11853185
114	0xbe2962bd	-0.16541572
115	0x3e4076bf	0.18795298
116	0x3ee12d6b	0.43979964
117	0xbdf92722	-0.12165667
118	0xbd4586a4	-0.048224106
119	0x3e8fe85f	0.28106973
120	0xbbf72d22	-0.007543222
121	0x3e0a453b	0.13502972
122	0x3d0652d0	0.03279382
123	0xbcb500a7	-0.022095038
124	0x3d2351ec	0.03987305
125	0x3e297217	0.16547428
126	0x3e80b6ee	0.25139564
127	0x3ec904a3	0.3926135

net.4.bias f4 [2]
0	0xbdfca63a	-0.12336393
1	0xb9a8993d	-0.00032157628
